1_5_CNN_Layers/saved_models/model_1.pt (torch_old, 116834 bytes, 6 tensors)

conv1.weight f4 [16, 1, 5, 5]
0.11207108 -0.049845103 -0.21718557 -0.21182564 -0.30056253 0.07817789 -0.09821249 -0.096067436
0.10284946 -0.0360582 -0.33413076 0.2916235 0.23860562 -0.17321973 0.104782656 -0.2786624
0.23423356 0.19218159 0.17053734 0.040683933 0.08938142 -0.28181764 -0.25602576 -0.07879162
-0.03288291 -0.106743485 -0.045624945 -0.08228476 0.099877164 -0.0073727136 0.060432173 0.012220022
-0.02412704 0.030815812 0.13495697 0.20019644 -0.09488866 -0.25036192 0.23779242 -0.091852486
0.14830795 0.19632192 -0.53619075 0.18940914 0.056102786 0.081676744 0.05033795 -0.3843942
-0.21181457 0.23330645 -0.09506019 -0.17177987 -0.1758899 0.085198455 -0.09972023 -0.3777721
-0.25496984 -0.10033791 0.10101658 0.10312238 0.11061227 0.09900584 0.2607164 0.096447
0.0379008 0.2543467 0.148724 0.18636906 -0.0058718305 0.11430241 0.08501008 -0.26231864
-0.25196886 -0.40106967 -0.26736522 -0.126725 -0.06529484 0.27875173 0.03557287 -0.23343812
-0.008251994 0.05355022 0.15980871 0.28205758 -0.43194968 0.017912108 0.06791911 0.17986313
0.08870352 -0.33362803 0.09019559 0.16491666 0.13512012 -0.21615091 -0.11695384 0.23860271
0.09235455 -0.014049207 -0.0329404 -0.26127937 -0.010849977 -0.007085097 -0.30899256 -0.08803303
-0.3003301 -0.21159647 0.14488518 0.23846659 -0.17445236 -0.20704505 -0.27842662 0.2104254
0.40733987 -0.2254091 -0.36927155 -0.2114522 0.16714452 0.10195849 0.23730437 -0.1266248
0.010144954 -0.16743575 0.17145413 -0.014225636 0.09848278 -0.032955736 0.09948921 -0.30027857
0.12253697 0.1079041 0.0023046182 -0.31671792 0.012719159 0.26169693 -0.013095652 -0.33606023
-0.2602765 0.37625924 0.2088969 -0.031343363 -0.049078315 0.35317805 0.3233234 -0.3459352
-0.2728427 0.13033937 0.19462107 -0.33848393 -0.30729878 0.15292579 -0.0868754 0.016374974
-0.018010043 0.1473593 0.03632015 0.036744293 -0.07066924 -0.20017156 0.15466484 0.013413876
0.04360373 0.09520624 -0.13746803 0.17287262 0.1886471 0.05888269 0.09106826 -0.047386546
0.087364666 0.055918336 -0.021844713 0.101177625 0.022464547 0.025626743 -0.07068833 -0.14313684
-0.04147319 -0.20041196 -0.021541214 0.006084507 -0.0948739 -0.1116089 -0.14128712 0.03324937
-0.020129781 0.029254755 -0.053692885 0.08372985 -0.121645324 -0.109957784 -0.16436163 -0.18362719
0.06485978 0.065240204 -0.17737041 0.065773934 0.004989033 -0.1441817 -0.020361861 0.031106975
-0.00035231136 0.3553119 0.060141347 -0.0517011 -0.33593088 0.124049515 0.33129486 0.2073272
-0.08639587 -0.08138256 0.02755558 -0.16081475 0.29028177 0.2302868 0.019410426 -0.20914935
-0.30426142 -0.05438916 -0.08856311 0.29887566 0.069156855 -0.35820204 -0.3890221 -0.054108635
0.14137961 0.20315367 0.18990315 0.04071006 -0.075743474 -0.21302038 -0.23555769 -0.07274413
-0.42091164 -0.3508821 -0.08633053 -0.052393105 -0.24433991 -0.17684437 0.19997773 0.2346078
-0.14479358 0.24213341 0.3059331 0.02236842 0.10510865 0.19880186 -0.11942902 0.16453221
0.05434353 -0.010357532 0.14137983 -0.24092564 0.28429103 -0.01123802 -0.11122104 -0.10224709
00000000: 8685 e53d 612a 4cbd e565 5ebe d2e8 58be
00000010: 55e3 99be bb1b a03d a123 c9bd 01bf c4bd
00000020: bda2 d23d c3b1 13bd 3013 abbe ad4f 953e
00000030: 0855 743e 8360 31be 4a98 d63d d7ac 8ebe
00000040: ecda 6f3e 40cb 443e 57a1 2e3e 32a4 263d
00000050: 9b0d b73d 674a 90be cf15 83be 805d a1bd
00000060: 3bb0 06bd 549c dabd 39e1 3abd ea84 a8bd
00000070: 668c cc3d ce96 f1bb ba87 773d 7d36 483c
00000080: 12a6 c5bc 7171 fc3c 2932 0a3e 4c00 4d3e
00000090: fc54 c2bd 702f 80be db7f 733e 281d bcbd
000000a0: 0ade 173e 9d08 493e cc43 09bf 78f4 413e
000000b0: 09cc 653d 2346 a73d 2b2f 4e3d 51cf c4be
000000c0: ebe5 58be e3e7 6e3e ebae c2bd 10e7 2fbe
000000d0: 7b1c 34be 877c ae3d 1f3a ccbd 586b c1be
000000e0: 688b 82be f67d cdbd c8e1 ce3d d431 d33d
000000f0: b088 e23d 93c3 ca3d 9f7c 853e 0186 c53d
00000100: df3d 1b3d bb39 823e 1b4b 183e 88d7 3e3e
00000110: 7c68 c0bb 6217 ea3d c419 ae3d a14e 86be
00000120: 1002 81be 0159 cdbe 18e4 88be 33c4 01be
00000130: 4db9 85bd 8cb8 8e3e dcb4 113d 670a 6fbe
00000140: 5f33 07bc 7a57 5b3d e5a4 233e da69 903e
00000150: 8228 ddbe 6abc 923c 2d19 8b3d 0a2e 383e
00000160: 31aa b53d 4bd1 aabe 77b8 b83d eadf 283e
00000170: ee5c 0a3e aa56 5dbe 7f85 efbd 4554 743e
00000180: 6224 bd3d a52e 66bc 83ec 06bd 69c6 85be
00000190: 1ac4 31bc 1a2a e8bb 4634 9ebe a94a b4bd
000001a0: dec4 99be bfac 58be c85c 143e 9630 743e
000001b0: a4a3 32be 9e03 54be ef8d 8ebe c279 573e
000001c0: da8e d03e a5d1 66be 2911 bdbe ed86 58be
000001d0: ef27 2b3e 9dcf d03d ebff 723e eea9 01be
000001e0: 0537 263c 4774 2bbe ac91 2f3e a412 69bc
000001f0: 57b1 c93d 98fc 06bd 00c1 cb3d 1dbe 99be
00000200: aaf4 fa3d d3fc dc3d 1409 173b da28 a2be
00000210: 0564 503c 24fd 853e 258f 56bc 1610 acbe
00000220: f642 85be 0da5 c03e 12e9 553e e661 00bd
00000230: 5806 49bd c1d3 b43e a58a a53e 6b1e b1be
00000240: 0ab2 8bbe af77 053e bf4a 473e c44d adbe
00000250: 4456 9dbe 9498 1c3e bbeb b1bd cf24 863c
00000260: cc89 93bc 5be5 163e 70c4 143d 2f81 163d
00000270: 09bb 90bd c6f9 4cbe 7660 1e3e e0c5 5b3c
00000280: d399 323d 7dfb c23d 6bc4 0cbe 8505 313e
00000290: b52c 413e fa2e 713d ff81 ba3d 6518 42bd
000002a0: 3fec b23d a00a 653d aff3 b2bc 3736 cf3d
000002b0: 9207 b83c 2def d13c 0bc5 90bd 7792 12be
000002c0: cbdf 29bd cb38 4dbe 3377 b0bc 8b60 c73b
000002d0: 3f4d c2bd 3593 e4bd 92ad 10be 7e30 083d
000002e0: 36e7 a4bc aba7 ef3c 12ed 5bbd 8e7a ab3d
000002f0: 2f21 f9bd 8c31 e1bd 6a4e 28be c408 3cbe
00000300: 34d5 843d a89c 853d 97a0 35be 7cb4 863d
00000310: 0b7b a33b 5ea4 13be ebcd a6bc 0ed4 fe3c
00000320: 6eb6 b8b9 71eb b53e c656 763d 88c4 53bd
00000330: 22ff abbe ac0d fe3d 7b9f a93e 954d 543e
00000340: 51f0 b0bd e6ab a6bd 3dbc e13c 9fac 24be
00000350: d09f 943e 4ed0 6b3e 9d02 9f3c 3f2b 56be
00000360: 27c8 9bbe 2bc7 5ebd 9360 b5bd 3b06 993e
00000370: 1ca2 8d3d 4266 b7be e82d c7be 04a1 5dbd
00000380: d1c5 103e 8407 503e f975 423e 98bf 263d
00000390: 651f 9bbd 0422 5abe 0936 71be e0fa 94bd
000003a0: bb81 d7be d2a6 b3be 10ce b0bd 279a 56bd
000003b0: 3e34 7abe b116 35be f6c6 4c3e 073d 703e
000003c0: c544 14be d2f1 773e 43a3 9c3e fa3d b73c
000003d0: 3443 d73d b792 4b3e 3497 f4bd 227b 283e
000003e0: 5297 5e3d a3b2 29bc e0c5 103e 36b5 76be
000003f0: 988e 913e ac1f 38bc dbc7 e3bd ec66 d1bd

conv1.bias f4 [16]
0.11277499 -0.01333986 -0.003519604 -0.014398528 -0.0070991726 -0.018780554 -0.28283358 -0.17280373
-0.06098246 -0.028191516 -0.031730972 -0.08927632 0.137436 0.13038719 -0.023030229 -0.11186241
00000000: 93f6 e63d 6e8f 5abc 28a9 66bb cee7 6bbc
00000010: 2da0 e8bb add9 99bc 90cf 90be 76f3 30be
00000020: bec8 79bd e5f1 e6bc 56f8 01bd 81d6 b6bd
00000030: 06bc 0c3e 3884 053e e4a9 bcbc 1f18 e5bd

conv2.weight f4 [32, 16, 5, 5]
-0.009220308 0.055410262 0.067645684 0.2373588 -0.0011348372 0.02524252 0.031730823 0.055378225
0.3511824 0.0921494 -0.092917725 -0.035689473 -0.05597183 0.18272229 -0.015450144 0.20437364
0.20081452 0.009826072 0.27452275 0.11361103 -0.04665651 0.11154036 -0.074814096 0.15094538
-0.028930206 0.040213298 -0.0041993675 -0.02045479 -0.018684415 -0.033016853 0.05919406 -0.083790794
0.12895708 0.12598817 -0.11102257 -0.15920174 -0.21787232 0.10633898 0.029592084 -0.102168165
-0.094281614 -0.026412012 -0.03846614 -0.1676881 -0.044651125 -0.008595017 -0.14839931 -0.06834715
-0.24633332 -0.017727774 -0.15790735 -0.32023162 -0.07508282 0.055529974 -0.005849125 -0.0011983274
-0.14550605 -0.055247296 -0.027190069 -0.0021182622 -0.07274274 -0.06983819 0.010907259 -0.30980858
-0.19317031 0.13084476 0.09812156 0.03128349 -0.03470192 -0.027352748 -0.01743687 -0.043319743
-0.04822225 0.024385931 0.030095866 0.22994861 -0.052425653 0.037382714 0.08735627 -0.047213618
0.12097713 0.07423263 0.10506412 0.18307266 -0.05497992 0.0008877438 0.09713139 0.11717706
0.10514233 -0.033661686 -0.1291254 0.01711529 0.044480786 0.09492234 0.03398003 -0.44945484
-0.1350882 -0.13085902 0.047807965 0.089389145 0.1132365 -0.24595419 0.09679529 0.17335388
-0.20470218 0.09317887 -0.10006292 0.07648764 0.18588158 -0.049664434 -0.2699102 -0.05168116
0.13983753 0.19061477 -0.102905035 -0.063995264 -0.042685557 0.11695416 0.13073495 0.006098313
-0.30126497 -0.1609456 -0.23171763 -0.08531254 -0.039537262 0.07430486 -0.16701545 -0.19843201
-0.00044022396 -0.17762057 -0.24206983 -0.14538416 0.12046099 0.1323055 -0.15308066 -0.31312862
0.121883824 0.07250396 -0.024730626 0.07216329 -0.02037294 0.013023271 -0.13569607 -0.016569037
0.20844382 -0.23979773 -0.14654885 -0.020569135 -0.094346836 0.055075478 -0.03335644 -0.04695538
-0.13487534 -0.14898369 -0.053592402 0.047897864 0.014172299 0.03916439 -0.025405267 0.027005158
0.011384292 0.08183739 0.070016325 0.026305445 -0.017767979 -0.013093637 -0.04329142 -0.012984667
0.11605229 0.051011838 -0.06130301 -0.058535323 -0.027821163 0.033472393 -0.0038231395 0.00042385331
-0.03494507 -0.017403817 -0.0124473525 -0.04109537 0.010436506 0.025592048 -0.009487146 0.04342862
0.04429281 0.036870796 0.044350024 -0.0055988403 -0.018190898 -0.016686596 -0.039102558 -0.017916732
0.03603194 -0.01350263 0.04937122 0.04064882 -0.039358128 0.04243609 0.017730167 0.020856585
-0.27583358 -0.27177244 -0.39168411 -0.5843931 -0.49773586 -0.10449389 -0.4541819 -0.270964
-0.3988027 -0.5518197 -0.17827655 -0.10785939 -0.2936309 -0.43941945 -0.49202695 0.2513798
0.12730524 0.095741816 -0.17151113 -0.1814442 -0.081941135 0.05514457 0.14852364 0.021261578
0.15060818 -0.13668656 -0.313187 -0.13316174 0.031142317 0.11846368 -0.107151374 -0.05827208
0.011674788 0.074448794 0.077856414 -0.07007408 0.15289795 -0.10125249 -0.09811046 -0.00015109917
0.22624066 0.23919515 0.033909455 0.027627317 -0.007156733 0.15361686 0.27882785 0.08114798
-0.2614149 -0.18089716 -0.41028827 -0.1828613 0.025181234 0.10728393 -0.11494562 -0.48139113
00000000: c610 17bc dff5 623d d289 8a3d 2f0e 733e
00000010: d1be 94ba 67c9 ce3c 2ef8 013d 47d4 623d
00000020: 2ece b33e d3b8 bc3d a64b bebd 202f 12bd
00000030: b842 65bd 8d1b 3b3e 9a22 7dbc 5347 513e
00000040: 52a2 4d3e 88fd 203c 3f8e 8c3e e6ac e83d
00000050: e61a 3fbd 466f e43d 2238 99bd 6d91 1a3e
00000060: 0aff ecbc b3b6 243d d99a 89bb ce90 a7bc
00000070: 0f10 99bc ae3c 07bd 7875 723d 829a abbd
00000080: 530d 043e 0b03 013e cd5f e3bd c805 23be
00000090: ec19 5fbe 40c8 d93d 196b f23c 8b3d d1bd
000000a0: b816 c1bd 015e d8bc ac8e 1dbd 6eb6 2bbe
000000b0: 19e4 36bd 1dd2 0cbc fdf5 17be 97f9 8bbd
000000c0: cd3e 7cbe d639 91bc 77b2 21be 66f5 a3be
000000d0: 06c5 99bd 6673 633d 04aa bfbb 3211 9dba
000000e0: 8aff 14be fd4a 62bd b5bd debc 8bd2 0abb
000000f0: 25fa 94bd 5307 8fbd 5cb4 323c 3b9f 9ebe
00000100: 70ce 45be 2bfc 053e f5f3 c83d 1e23 003d
00000110: 9a23 0ebd df12 e0bc c4d7 8ebc 0b70 31bd
00000120: b284 45bd 01c5 c73c 9b8b f63c a677 6b3e
00000130: 48bc 56bd 9e1e 193d d8e7 b23d 1163 41bd
00000140: dcc2 f73d 4707 983d db2b d73d 6677 3b3e
00000150: a032 61bd 7ab7 683a d2ec c63d 87fa ef3d
00000160: dd54 d73d d6e0 09bd 7339 04be 5d35 8c3c
00000170: 7c31 363d a566 c23d a52e 0b3d f21e e6be
00000180: 9054 0abe e8ff 05be 49d2 433d a811 b73d
00000190: 8ae8 e73d 6adb 7bbe 9c3c c63d ae83 313e
000001a0: 739d 51be 90d4 be3d caed ccbd 8da5 9c3d
000001b0: be57 3e3e ef6c 4bbd ab31 8abe a0af 53bd
000001c0: 9231 0f3e 8530 433e e0bf d2bd f30f 83bd
000001d0: 0dd7 2ebd aa85 ef3d 62df 053e 5bd4 c73b
000001e0: 673f 9abe ecce 24be 6347 6dbe 57b8 aebd
000001f0: d3f1 21bd 252d 983d 1906 2bbe c331 4bbe
00000200: dccd e6b9 2be2 35be 27e1 77be 96df 14be
00000210: 40b4 f63d 187b 073e 2dc1 1cbe 6552 a0be
00000220: 3a9e f93d f57c 943d e297 cabc 59ca 933d
00000230: 27e5 a6bc 8f5f 553c e9f3 0abe cabb 87bc
00000240: 4c72 553e 898d 75be e710 16be 9a80 a8bc
00000250: ea38 c1bd d396 613d c3a0 08bd 4954 40bd
00000260: c31c 0abe 2e8f 18be b583 5bbd 8d30 443d
00000270: ee32 683c d76a 203d b51e d0bc ec39 dd3c
00000280: 2e85 3a3c 5d9a a73d b864 8f3d 847e d73c
00000290: 278e 91bc b286 56bc 5852 31bd a4bd 54bc
000002a0: d3ac ed3d caf1 503d dd18 7bbd bcc2 6fbd
000002b0: 35e9 e3bc 591a 093d a38d 7abb a138 de39
000002c0: 9022 0fbd 7392 8ebc fbef 4bbc 9e53 28bd
000002d0: e1fd 2a3c 6aa6 d13c f96f 1bbc 35e2 313d
000002e0: 616c 353d d505 173d 5fa8 353d 7a76 b7bb
000002f0: 1405 95bc 54b2 88bc 012a 20bd 1cc6 92bc
00000300: 3a96 133d 233a 5dbc 7a39 4a3d 617f 263d
00000310: fd35 21bd 77d1 2d3d db3e 913c 6edb aa3c
00000320: 0f3a 8dbe c225 8bbe d28a c8be c99a 15bf
00000330: 3cd7 febe e500 d6bd 888a e8be cbbb 8abe
00000340: de2f ccbe 0e44 0dbf 218e 36be 62e5 dcbd
00000350: ca56 96be 96fb e0be f5ea fbbe dab4 803e
00000360: 4e5c 023e 4914 c43d 9da0 2fbe 82cc 39be
00000370: c1d0 a7bd 46df 613d 9516 183e c32c ae3c
00000380: 0839 1a3e 90f7 0bbe 0c5a a0be 8d5b 08be
00000390: 2c1e ff3c 169d f23d 2e72 dbbd b4ae 6ebd
000003a0: 9c47 3f3c 9c78 983d 2f73 9f3d 0083 8fbd
000003b0: 4891 1c3e 775d cfbd 23ee c8bd 6070 1eb9
000003c0: a2ab 673e 93ef 743e a4e4 0a3d af52 e23c
000003d0: 0783 eabb bd4d 1d3e 86c2 8e3e ea30 a63d
000003e0: 2cd8 85be 1b3d 39be 4e11 d2be fe3f 3bbe
000003f0: e048 ce3c adb7 db3d 9c68 ebbd e678 f6be

conv2.bias f4 [32]
0.16111487 0.11515949 0.0046863863 -0.09856805 0.069222264 0.025882438 -0.15600765 -0.015363767
-0.04425307 -0.1453789 -0.07539888 0.07208773 -0.030407883 0.06476232 0.10193357 0.12210334
0.17905739 -0.13212004 0.09213474 -0.07151053 -0.039186284 -0.016350474 -0.03186125 0.018697312
-0.21826485 0.10685661 -0.07706201 -0.0627804 0.3351844 0.11718461 0.06914613 0.09765912
00000000: 4cfb 243e bdd8 eb3d 4290 993b 0cde c9bd
00000010: 67c4 8d3d 6807 d43c 78c0 1fbe 4fb8 7bbc
00000020: b542 35bd 35de 14be ba6a 9abd bba2 933d
00000030: f419 f9bc 1ba2 843d 8cc2 d03d 5111 fa3d
00000040: d25a 373e 7a4a 07be 23b1 bc3d 1d74 92bd
00000050: cc81 20bd 6ef1 85bc f180 02bd 1b2b 993c
00000060: d280 5fbe a3d7 da3d b0d2 9dbd 0393 80bd
00000070: 4a9d ab3e 7cfe ef3d 7c9c 8d3d 8101 c83d

fc1.weight f4 [10, 1568]
-0.0508819 -0.16610749 -0.09039688 -0.01398552 0.061716586 -0.07170255 -0.11196329 0.10916476
-0.040196717 -0.10722096 -0.03316884 -0.014754168 -0.025953142 -0.07632218 0.0400992 -0.03500943
-0.37205964 0.02156837 -0.26781687 0.024004966 -0.17650847 0.003110318 -0.087857254 -0.21868792
0.10748806 -0.06830673 -0.12318052 -0.2201794 -0.07516495 -0.0045533134 -0.11508272 0.1992329
0.021340936 -0.20003828 -0.10633185 -0.05999933 0.042991348 -0.21339336 0.09358805 0.07123129
-0.059948873 -0.1257116 -0.028428763 0.11480766 -0.17920198 0.06477161 0.13388705 0.13241284
0.19143634 -0.08823113 -0.05634204 0.10899514 0.06056371 0.073768206 0.14048554 0.046467397
0.14656419 -0.02710747 0.033660293 -0.014842384 -0.08845629 0.06974973 0.084015116 0.0485885
0.07710322 0.04937396 0.07231267 0.08767611 -0.011605567 -0.05924997 -0.09131385 0.0685434
-0.16209078 0.14476661 0.009326117 -0.04984232 -0.37355375 -0.24959688 -0.19989328 0.03014759
0.041701574 -0.04918241 -0.030710287 -0.14169352 -0.06309302 -0.086661376 0.10545008 -0.037504673
0.082846895 0.0044180783 -0.35949084 0.034772746 -0.036016125 0.064806595 -0.043211937 0.05064818
-0.042949326 0.020232644 0.019191122 0.08660235 -0.0026235033 0.0076115667 0.07016158 -0.053373642
-0.065117545 0.028495884 0.124479644 -0.03788905 -0.08764786 0.091285184 0.06154827 -0.06946337
0.0051041357 0.054278575 -0.032238126 -0.0343299 -0.10678999 0.08641116 -0.049893647 -0.32790342
-0.21190374 -0.10316913 -0.17018981 -0.17413177 -0.0018610733 -0.29276863 -0.10062921 -0.24204233
-0.04550199 -0.08822992 0.019240152 -0.14883012 -0.29084116 -0.10278635 -0.19292834 0.13954984
-0.15920512 0.03984622 -0.16610128 -0.15665188 -0.24077052 -0.06495289 0.06397044 -0.08214508
0.08553329 -0.1246644 -0.021889646 -0.0006677399 -0.03033914 0.025429243 0.032138087 0.0018830278
-0.0044396454 -0.011776474 -0.044904135 -0.052642494 -0.012056289 0.04155119 0.059150647 0.08039286
0.040418386 -0.009034077 -0.041793257 0.013926773 0.014107064 -0.065166265 0.025788967 0.060766913
0.07015333 -0.0021459006 -0.057069972 0.052790873 -0.014643153 0.07288793 0.0060031475 -0.024389919
-0.08526738 -0.014135387 0.024313547 0.031358484 -0.041897252 -0.0364675 -0.011814293 -0.01627789
-0.044991907 0.015005079 0.02104871 -0.0011061054 0.06667768 0.05943547 -0.05888182 -0.0928003
0.010340642 -0.07793148 -0.08304631 -0.018950382 0.08266158 0.027840478 -0.03754463 -0.06349327
0.034832142 0.040387865 -0.07386654 0.10330557 0.11705635 0.055233207 -0.09279461 0.04626023
-0.012403321 -0.2798395 0.13530332 0.10229971 0.028730033 0.054084945 -0.0568427 0.039630454
-0.17511201 -0.1018703 -0.14706744 -0.09164149 0.061868012 0.02685636 0.03273846 -0.06964796
0.012829651 -0.079049945 -0.088053465 0.027415596 0.069693975 -0.1460113 -0.23727638 -0.22500625
-0.011267117 0.038837504 0.021398792 0.08072398 0.019460646 -0.2216754 -0.2169246 0.014679825
0.033399962 0.01831353 0.01260196 0.12942901 -0.26320723 0.069542065 0.033202544 -0.07978109
-0.020637602 -0.0336556 -0.15444322 -0.09300773 0.2466363 0.035132214 0.07532462 -0.008544859
00000000: 8a69 50bd 1518 2abe 0022 b9bd 8623 65bc
00000010: 88ca 7c3d c9d8 92bd 024d e5bd c691 df3d
00000020: 50a5 24bd aa96 dbbd 0ddc 07bd 77bb 71bc
00000030: af9b d4bc ce4e 9cbd 0f3f 243d 0c66 0fbd
00000040: 9a7e bebe 26b0 b03c 4b1f 89be 10a6 c43c
00000050: a3be 34be 7ad6 4b3b 81ee b3bd baef 5fbe
00000060: b322 dc3d 66e4 8bbd 1246 fcbd b576 61be
00000070: 15f0 99bd f633 95bb 7db0 ebbd b603 4c3e
00000080: 30d3 ae3c d6d6 4cbe 83c4 d9bd dcc1 75bd
00000090: b217 303d ca83 5abe 17ab bf3d b6e1 913d
000000a0: f38c 75bd 8bba 00be 70e3 e8bc 4720 eb3d
000000b0: b980 37be faa6 843d b019 093e 3b97 073e
000000c0: e307 443e 86b2 b4bd e9c6 66bd d838 df3d
000000d0: a711 783d c913 973d 71db 0f3e 9954 3e3d
000000e0: ec14 163e 7c10 debc 60df 093d 782d 73bc
000000f0: 9228 b5bd f2d8 8e3d 1e10 ac3d bc04 473d
00000100: 4be8 9d3d 593c 4a3d aa18 943d 888f b33d
00000110: 4725 3ebc 19b0 72bd c102 bbbd 7b60 8c3d
00000120: 20fb 25be b33d 143e 92cc 183c 7627 4cbd
00000130: 7042 bfbe 5396 7fbe d3b0 4cbe 14f8 f63c
00000140: 45cf 2a3d 7f73 49bd 2494 fbbc 1b18 11be
00000150: ea36 81bd 857b b1bd 36f6 d73d 809e 19bd
00000160: a2ab a93d 87c5 903b 2f0f b8be de6d 0e3d
00000170: a585 13bd 52b9 843d 00ff 30bd 7774 4f3d
00000180: a2eb 2fbd eebe a53c b336 9d3c 935c b13d
00000190: 15ef 2bbb 736a f93b e0b0 8f3d 529e 5abd
000001a0: 595c 85bd 3370 e93c 2fef fe3d 8c31 1bbd
000001b0: b980 b3bd baf3 ba3d 0a1a 7c3d d042 8ebd
000001c0: 9840 a73b 3653 5e3d 200c 04bd 829d 0cbd
000001d0: b6b4 dabd 56f8 b03d 485d 4cbd f5e2 a7be
000001e0: 4bfd 58be 564a d3bd 3d46 2ebe 994f 32be
000001f0: 42ef f3ba c5e5 95be b016 cebd f2d9 77be
00000200: 4b60 3abd e3b1 b4bd 869d 9d3c ec66 18be
00000210: 22e9 94be a681 d2bd 028f 45be 27e6 0e3e
00000220: ab06 23be ca35 233d 7416 2abe 5a69 20be
00000230: 8c8c 76be 0506 85bd ef02 833d ae3b a8bd
00000240: 142c af3d 0d50 ffbd ea51 b3bc 440b 2fba
00000250: ca89 f8bc fd50 d03c 3aa3 033d eecf f63a
00000260: 727a 91bb 1df2 40bc 66ed 37bd a89f 57bd
00000270: be87 45bc 9531 2a3d f347 723d 03a5 a43d
00000280: c08d 253d aa03 14bc 682f 2bbd 1f2d 643c
00000290: 5121 673c e475 85bd 6243 d33c bae6 783d
000002a0: 8dac 8f3d 3da2 0cbb 34c2 69bd 3e3b 583d
000002b0: d6e9 6fbc 4446 953d 0db6 c43b 5ecd c7bc
000002c0: aaa0 aebd 1c98 67bc 342d c73c c171 003d
000002d0: 749c 2bbd f25e 15bd bd90 41bc 3659 85bc
000002e0: 6f49 38bd ddd7 753c 586e ac3c bdfa 90ba
000002f0: 4f8e 883d 9b72 733d 102e 71bd 150e bebd
00000300: cc6b 293c 8a9a 9fbd 2f14 aabd d53d 9bbc
00000310: 794a a93d b711 e43c 66c8 19bd c208 82bd
00000320: 26ac 0e3d bf6d 253d 5747 97bd df91 d33d
00000330: 3dbb ef3d 373c 623d 1a0b bebd 5e7b 3d3d
00000340: 4d37 4bbc 1f47 8fbe f48c 0a3e 8382 d13d
00000350: 3f5b eb3c 2d88 5d3d e4d3 68bd 8b53 223d
00000360: 9050 33be 60a1 d0bd d998 16be 89ae bbbd
00000370: 5069 7d3d de01 dc3c c318 063d 97a3 8ebd
00000380: 7533 523c f0e4 a1bd 6055 b4bd ac96 e03c
00000390: b7bb 8e3d fc83 15be 94f8 72be 0a68 66be
000003a0: b799 38bc 1314 1f3d 854c af3c 9d52 a53d
000003b0: ef6b 9f3c e0fe 62be 7b21 5ebe a683 703c
000003c0: 66ce 083d 4206 963c 7478 4e3c 0a89 043e
000003d0: 19c3 86be 126c 8e3d 64ff 073d 4564 a3bd
000003e0: 3010 a9bc 74da 09bd 5d26 1ebe d67a bebd
000003f0: 3a8e 7c3e cce6 0f3d cb43 9a3d bcff 0bbc

fc1.bias f4 [10]
-0.10880954 -0.10455822 0.012572792 0.074612774 -0.085825734 -0.0666105 0.10403903 0.13867599
-0.037015248 -0.12587994
00000000: 89d7 debd 9f22 d6bd 1dfe 4d3c 95ce 983d
00000010: 67c5 afbd 166b 88bd 6a12 d53d 1401 0e3e
00000020: 4d9d 17bd ace6 00be
